outputs/autoencoder_run1/autoencoder_state.pt (torch, 424243 bytes, 12 tensors)

encoder.0.weight f4 [256, 58]
00000000: 4b15 e63d 9529 2ebd c693 473d 0c53 133d
00000010: d0e1 3d3d fee3 163d 01f5 6abd 10bc bf3c
00000020: e350 dc3d d8b4 62bd 0735 ac3d 1620 393d
00000030: 11b5 bb3d 73e7 3f3d 833e 493d 0c7b a63c
00000040: 8262 163d 49b0 7d3c 19c8 26bc cd92 153d
00000050: 1ae8 16be 20df c9bd 42e8 e8bc 992b 183d
00000060: 52c8 b7bc 381d 14bd fe22 09bd 7113 3b3c
00000070: a069 94bc fba7 2abd c866 2c3c a807 d6bc
00000080: 4004 7f3d 3aab 4d3b 93ae e5bd efdf 99bc
00000090: 5fa7 0a3d ba53 363d add6 6abb 97ed c1bc
000000a0: 9b19 e3bb e699 8a3c c17a 3f3d c0f2 b43d
000000b0: 5d49 723d 858c 94bc 66fc 713d 3b4c b53c
000000c0: 0c9b 573d df7c 8ebc f2bb cbbc 2015 ea3b
000000d0: e533 9dbd 8473 083e 5c48 353d 0562 6ebd
000000e0: bf97 8cbc 0668 b8bb 8ba5 0f3d e056 dbbd
000000f0: 2c00 e13c 9f10 36bd a318 473d 4f18 a4bd
00000100: 9c9b 863d 9ff4 0e3b 9f77 283e 6cb5 91bd
00000110: 4b77 c73b ce08 2bbc 5733 25bd 697d 6e3c
00000120: 177c 793d 1bab 3ebd b19f edbd d8ea 13bd
00000130: 7100 91bd 11bc 373d a276 743d 0107 753d
00000140: c846 5cbd 05b5 aabd 4ace f13b 5ee8 803c
00000150: 4bee 363e 1e82 bf3c 08e3 863d e10f 82bd
00000160: 360c 64bd 4e68 37bd 8c4e b2bc d3e4 51bd
00000170: ef6f c83d 3caa adbb 2cca b0bd db2a 4cbd
00000180: d469 593d 5aec 7fbd 7c3c c5bd 104e 3dbd
00000190: 9fc6 2a3c 3688 173d 7f51 223c 1ea8 61bd
000001a0: 2c79 ab3c d358 efbc e8ec 27bd 879d 43bd
000001b0: 1356 0abd 94cb 373d 1bef 2a3e 00b6 343d
000001c0: 8ef6 c8bb df73 eebd 9ed6 60bb b225 41bd
000001d0: 30ac 78bc fb2a d5bd 0d48 63bd b9c0 fbbc
000001e0: 9352 1c3c bd39 0cbd 9639 363d 867c b4bc
000001f0: 7b21 afbd 7690 e1bc 1310 a4bc d383 d8bc
00000200: 954f a23d df04 163d dd5e 7d3c 63c7 103e
00000210: 34d3 a6bd abcc 9b3d fedc 14bd b384 8fbc
00000220: fdd6 1fbe c56b 11be 9149 343c 0121 dbbd
00000230: be1d f43c de90 05be e71a 363d 0d33 06bc
00000240: 93a3 1cbd 4a0b 503d d599 9d3c c296 b63d
00000250: f4d2 0b3e 680d 65bd 22b1 4fbc bf4f 1dbd
00000260: 3df8 8a3b 67d0 7c3c 5563 293e 85f2 55bd
00000270: 1532 fd3b 8989 80bc 3a52 9c3b 43f1 01bd
00000280: fc7f f83d 062d aa3c ca85 1f3d 04a2 8abd
00000290: 59b8 8e3d 73a3 0ebd e5f0 dcbb 5db4 573d
000002a0: 8831 4c3d d4ad 0abd aded 55bc 2ffe d1bc
000002b0: 090b 033c 62f3 d0bc 7cfc cebd 9a7e c8bb
000002c0: 5a84 20be 946d 0f3d 5af1 fc3d 93ef 9abd
000002d0: d05f c43c 7014 543d 8108 afbc 8023 dc3b
000002e0: c4b2 aebb 8a36 0d3d 90e3 953d 152a d5bc
000002f0: 0fc5 8c3c c405 d83c c6af 82bc aab8 b9bd
00000300: d2e1 f53c 6ff4 0c3d 246f aabd 6844 7bbd
00000310: b423 653c b538 b43c a00b 44bc 0e6a 3f3d
00000320: 8a43 68bd 2f08 cc3b c440 653d 9dcc 87bc
00000330: e1d8 d8bd 632b 0dbd 346d 3fbc 5f87 96bd
00000340: 49f5 f3bd 3e06 473d ca2d b73d efbc 03bd
00000350: 3528 dcbc 278c 47bd d7de a03c acf1 273e
00000360: bf69 243d 9113 24bd f7de b03a 8cc0 fbbc
00000370: 4bca 82bd eb69 ab3c 1740 55bd d92b 2fbc
00000380: 1826 493d 47f6 70bc 0349 c03c bbe2 b93d
00000390: 890d 8cbd 1b94 aabd 1e96 8f3b 5bcb b73d
000003a0: 3c80 4a3d 0840 25bc b803 803d 03e9 0f3b
000003b0: b3e5 b2bc 37cb 0fbd 7d96 49bd c067 88bd
000003c0: a669 203d e622 c7bd a6dc 2f3c c624 3dbd
000003d0: 4b03 4abd 8322 54bd e6eb 3fbd c11a 7fbc
000003e0: 5a1f 113b bfad 8d3c d621 20bd 228b 36bd
000003f0: 5aa4 c9bd 8c51 bfbd ae17 da3b e616 92bd
0.1123453 -0.042520124 0.048724912 0.03596787 0.04635793 0.036838524 -0.05736256 0.023405105
0.107576154 -0.055348247 0.08408552 0.045196615 0.09165395 0.046851587 0.04913188 0.020322345
0.036715038 0.015483924 -0.010179543 0.036516953 -0.14736977 -0.09857011 -0.028431062 0.037150953
-0.022434387 -0.036160678 -0.033480637 0.011418209 -0.018116772 -0.041664105 0.010522552 -0.026126698
0.062259912 0.0031382577 -0.11214938 -0.018783538 0.033851024 0.04451344 -0.0035833523 -0.023672862
-0.0069305426 0.016919088 0.046747927 0.088353634 0.059151996 -0.018133411 0.059078597 0.022131076
0.0526381 -0.017393528 -0.024869893 0.0071436316 -0.07675914 0.13325316 0.04425846 -0.058198947
-0.017162202 -0.005627635 0.035069983 -0.107099295 0.027465902 -0.044449445 0.04860748 -0.08012449
0.06572649 0.0021813286 0.16451882 -0.071146816 0.006087219 -0.010439111 -0.040332165 0.014556267
0.060909357 -0.046549898 -0.11602724 -0.036112636 -0.07080162 0.04485709 0.05968345 0.059821133
-0.05377844 -0.08335308 0.007379328 0.015735801 0.17864339 0.023377474 0.065862715 -0.06350685
-0.055675708 -0.044777207 -0.02176597 -0.051243614 0.09786975 -0.0052998345 -0.08632311 -0.049845558
0.05307944 -0.06248126 -0.09630677 -0.046217024 0.0104233315 0.036995135 0.0099071255 -0.05509197
0.020931803 -0.02921716 -0.040997416 -0.04775765 -0.033773493 0.04487188 0.16692774 0.04411888
-0.0061329072 -0.116431944 -0.003430761 -0.04715509 -0.015177771 -0.104085885 -0.055488635 -0.030731546
0.009541172 -0.03423475 0.044488512 -0.022032034 -0.08551308 -0.027534705 -0.020027196 -0.026430046
0.07925335 0.03662574 0.015464512 0.1413856 -0.081457525 0.07607397 -0.036343567 -0.01751933
-0.15609355 -0.14201267 0.011003868 -0.10699654 0.029799338 -0.13043544 0.04445925 -0.008190882
-0.038241934 0.050792016 0.019238392 0.089154735 0.13654691 -0.05592099 -0.012676509 -0.03840613
0.004241018 0.015430546 0.16541798 -0.052233238 0.0077269175 -0.015690582 0.0047705444 -0.031724226
0.12133786 0.020773422 0.03894595 -0.06769183 0.06968755 -0.034823846 -0.006742584 0.052662242
0.049851924 -0.03385718 -0.013057155 -0.0256339 0.007998236 -0.025506679 -0.10106751 -0.0061186077
-0.15675488 0.03501661 0.12350722 -0.075652264 0.023971468 0.051777303 -0.02136636 0.006718099
-0.005331369 0.03447584 0.07318795 -0.026021043 0.017183809 0.026369937 -0.015952956 -0.09068425
0.030014906 0.034412798 -0.0832198 -0.061344534 0.013985563 0.021999696 -0.011965662 0.046732
-0.056705035 0.0062265615 0.05596997 -0.01657706 -0.10588241 -0.034465205 -0.011683751 -0.07350039
-0.11912019 0.048589937 0.089442804 -0.032162603 -0.026874641 -0.048717644 0.019637508 0.16400784
0.04013991 -0.040057722 0.0013494183 -0.030731462 -0.063862406 0.020924529 -0.052063074 -0.010691606
0.049108595 -0.014707155 0.023472315 0.090764485 -0.06838519 -0.0832903 0.004381909 0.08974334
0.0494387 -0.010086067 0.06250709 0.0021958954 -0.021838045 -0.03510591 -0.049215782 -0.06660414
0.039163254 -0.09723453 0.010733759 -0.046177648 -0.049319547 -0.051790725 -0.04685583 -0.0155703435
0.002214393 0.017294763 -0.03909477 -0.04456628 -0.09845801 -0.09341726 0.006655655 -0.07133274

encoder.0.bias f4 [256]
00000000: 20a2 b33c 00f8 fa3d fbfc 453d 247a e43d
00000010: ce83 ad3d 3a4d 023e 3114 c53d 586e 0d3d
00000020: 640b 0c3e 8be4 76bc 7cb8 0d3e 2445 253e
00000030: 237d 983c 6004 693d 29c7 533d 750f fc3d
00000040: a3d2 683d 4ec8 d53d 5cfa b33d a02e 963b
00000050: 709c 0e3e bc71 1b3d 19af b83d fd07 e33b
00000060: 2da5 ea3d 368a d33c 08c9 00bc a99a 9c3d
00000070: 8053 253d 15c7 12bd 28f0 b63d 330e eb3c
00000080: 4303 ee3d 1b36 ad3d dfc7 4e3c 86aa 543c
00000090: 496b 8b3d d1c1 d53d 3219 a03d 1d5b 8a3d
000000a0: dd03 033e 4337 003d 3106 4a3d cc91 673d
000000b0: 5205 1c3d f2dd a23d 05a4 8c3d b8d7 723d
000000c0: afb7 d43d d97d fd3c 20d6 a83d 805f 1e3e
000000d0: bdd4 073d 7ae2 723d 21f0 d33d 8fd9 d53d
000000e0: 4087 d23d bb86 023e 7a93 b63d e2c2 bb3d
000000f0: 0369 cf3c 2965 06bd 9329 fb3d c4e7 8b3c
00000100: cd98 ae3d 7d4f b43d fa8a b63d abcf d33d
00000110: 8b18 c13d 6830 2bbc 9617 963d 1b09 9d3c
00000120: c155 903d 9075 cc3d 171c 883c b7c7 203d
00000130: e357 cf3d 2d87 663d b2b6 ce3c 4be5 863d
00000140: b9f2 cf3d 6dd7 963d d320 843d ae74 543d
00000150: 54b0 0ebb a207 283d 369b ba3d efb0 9c3b
00000160: 2b3e d23d f4af de3d f3d7 e43d 1c91 993c
00000170: 072c bb3d 1e7f 243c 751e 0a3e 3faa e03d
00000180: 4aad c63d 22ec 34bd a15d de3b f35b b13d
00000190: 3a87 f73d fb56 3e3d b239 d9b7 e9c9 3f3d
000001a0: c018 d83d 5d58 123e 516c cb3d 0210 923d
000001b0: 90c7 0bbd 5a19 313d c5ca 903c 2ac4 da3c
000001c0: e460 003e 4162 db3d 24da d53a eac1 2c3d
000001d0: 962c a83d 89ae 043e 8481 d33d 5d3b ea3d
000001e0: 672d 103e 6d11 023e 18ca e13d b311 f93d
000001f0: 1ed0 d13d c71f d33c 3954 613d 7ef7 443d
00000200: ef9d 463c 2379 913d 1e3d 5d3d a59d be3d
00000210: dd9e cc3d 87ad 023e 71c4 ee3d f9ba 2c3d
00000220: 9620 b93d 6548 c43d f522 9f3d 0cae 8f3d
00000230: 3052 fc3c 48ec b03d 6cdb 423d 7d81 e23c
00000240: c6b5 a73c 1e2c 063e 1398 3b3d d86b 163e
00000250: 676f b63d 81bf b13d f77e 893d 9c76 d73d
00000260: 8778 ed3d 4023 b23d 6b0f ba3d 1268 c53d
00000270: 8b4c 16bb 7a84 bd3d 21b9 d23c e62d f13d
00000280: 75e9 b83d 93f2 973d 4684 3a3d f533 ef3d
00000290: 9baf 193d f8cb 593d 14b4 aa3d 732b 7d3d
000002a0: 9597 dc3b acfe 0c3d 673c 323d 8a09 db3d
000002b0: 9d29 a03c e9b0 bf3d a69e c73d 4a3d 5b3d
000002c0: dad8 873d cf41 623d f192 dc3d 6ad2 e7bb
000002d0: 9b1f 92bc ea84 03b8 a31d 103b ec9a a43d
000002e0: 2f9e 503d 0d2a 8d3d 604b 173c 0134 723d
000002f0: f35c 903d e0a9 ec3d a67f c13d f2ff 123d
00000300: 4a8c cb3d 76f2 893d 96a1 c83d d126 d33a
00000310: 1f30 9f3d 658c e63d 6649 383d dadb 953d
00000320: d157 fc3d ce89 2d3d f8f4 923d 6631 433d
00000330: a78a fe3d 75b4 733d be0c 61bc 9c28 833d
00000340: 3bb8 0c3e fa97 a13d e87d 053e 2f09 c03c
00000350: 4a7b e73d cdad 8f3d 8cf6 023e aa1f e03d
00000360: 66aa 8e3d 8d9b 663d 002c 68bc 4348 d73d
00000370: d43e 163d 990b 8d3c 8540 f13d 0491 ed3c
00000380: 1a4c 103e 84f1 933d 2341 683d 21aa bd3c
00000390: fdad d53d b56c e53d ba36 d03d f097 ba3d
000003a0: 6d3d 963d fb67 0c3e 3de6 f63d a4ab 343d
000003b0: 21f8 cb3c f3b4 b03d 5847 953c 44dd bb3d
000003c0: c777 e93d 83e0 1f3d 515d 083e 7146 dc3a
000003d0: ab05 9e3d f08e ecbc f31d b43d 54bb 74bb
000003e0: d24c d03d 96af d43d c0e4 04bd 3565 023e
000003f0: f475 cf3c 6beb a83d 69ff ee3d 1a99 f73c
0.021927893 0.122543335 0.048336964 0.11156109 0.084724054 0.12724772 0.09622992 0.03452906
0.1367622 -0.015069137 0.13839906 0.16139656 0.018614357 0.056888938 0.051703606 0.12307636
0.056841504 0.10438596 0.08787987 0.004583195 0.13926864 0.037950262 0.09017772 0.0069284425
0.11457286 0.02582274 -0.00786043 0.076466866 0.040362835 -0.03583439 0.08932525 0.028693294
0.11621716 0.084575854 0.012620895 0.012980109 0.068075724 0.10437358 0.078173056 0.0675566
0.12794442 0.0313027 0.04932231 0.056535527 0.03809101 0.07952489 0.06867222 0.059287757
0.10386597 0.030943798 0.08243966 0.15466118 0.033161867 0.059298016 0.10348535 0.10441887
0.10279703 0.12746708 0.08914848 0.0916803 0.025318628 -0.032811318 0.12263789 0.017078288
0.08525238 0.08804224 0.089132264 0.10342344 0.09428509 -0.010448553 0.073287174 0.01916938
0.07047606 0.09983361 0.016614957 0.039252963 0.10124185 0.056281257 0.0252336 0.06586703
0.101537175 0.07365308 0.06451573 0.051869087 -0.002177258 0.041022904 0.091116354 0.0047818343
0.10265764 0.10873404 0.111740015 0.018745951 0.09139257 0.010040073 0.13488181 0.10969972
0.09701021 -0.044170506 0.006786064 0.08660116 0.12086339 0.04646967 -2.5895282e-05 0.046823416
0.10551596 0.1429152 0.09932769 0.071319595 -0.034125865 0.043237068 0.017674813 0.026704866
0.12536961 0.107121 0.0016315621 0.04217712 0.08211629 0.12957205 0.103274375 0.11437104
0.1407982 0.1270196 0.110248744 0.12161579 0.10244773 0.025771989 0.05501196 0.04808759
0.012122615 0.07103183 0.054013364 0.09307412 0.09991238 0.12761508 0.11658562 0.0421705
0.090394184 0.09584121 0.077703394 0.07015619 0.030800909 0.08638817 0.04757254 0.027649635
0.020472419 0.13102767 0.045799326 0.14689577 0.08907967 0.086791046 0.0671367 0.1052067
0.115952544 0.0869813 0.09084972 0.096389905 -0.0022933807 0.092537835 0.025723042 0.117763326
0.090289034 0.07419314 0.045536302 0.11679832 0.037520986 0.053173035 0.083351284 0.061809015
0.006731937 0.03442256 0.043514635 0.10695179 0.019551093 0.09359915 0.09747057 0.053525247
0.06633158 0.05523854 0.10770214 -0.007074644 -0.017837336 -3.135662e-05 0.002199032 0.080373615
0.050932106 0.06892786 0.009234279 0.059131626 0.07048979 0.115558386 0.09448175 0.03588862
0.099388674 0.06735699 0.09796445 0.0016109591 0.0777285 0.11257247 0.044991873 0.07317324
0.12321437 0.04236775 0.0717563 0.047654532 0.124287896 0.05949827 -0.013735948 0.0640423
0.13742153 0.07890315 0.1303631 0.02344188 0.113028124 0.07015572 0.12789363 0.109435394
0.06966095 0.05630069 -0.014170647 0.1051183 0.03668101 0.017217444 0.11779884 0.028999813
0.1409153 0.072238 0.056702744 0.023152413 0.10433576 0.11202375 0.10166688 0.09111011
0.07335935 0.1371154 0.12055633 0.044109 0.02489859 0.08628263 0.018222496 0.091730624
0.11399799 0.03903247 0.13316847 0.0016805661 0.07715925 -0.028876752 0.08794775 -0.0037343102
0.10170902 0.10385053 -0.032444715 0.1273392 0.0253248 0.082480274 0.11669809 0.030224372

encoder.3.weight f4 [128, 256]
00000000: 9843 053d f251 fcb9 6f5b c8bc 1fe5 623d
00000010: abe0 6abc 886b 04bd f174 febc 5cf9 8dbc
00000020: 566f 1f3c 7b19 23bb 7508 edbc b9b8 683c
00000030: f716 a1bc efa2 a03b e7dd ddbc c1e1 06bd
00000040: 14d7 7bbc ead9 fabc f386 883d a17a 173d
00000050: d7a2 35bd 52f1 4e3c e0ed 0a3c e2bd 58bc
00000060: 7ba5 b3bc 6be2 0f3d ba78 c83b 7bff 4d3d
00000070: d2c9 e0bc 955a f6bc 2c28 47bd 8a7e 9dbc
00000080: 0ee4 07ba e04c cd3b 75ae a33d 94fe c8bb
00000090: 24bf 773d 503e a2bc 5319 a3bd f62a 69bc
000000a0: a897 173d 03e2 7f3d a696 f83c 564d 0bbd
000000b0: b5fc 633d 0d77 0ebc fdd1 213c c13b 953c
000000c0: 0c2e f03d 9f6c b6bc 9f15 a03b 4cc9 ef3d
000000d0: ed42 efbc 5323 943c 0bd1 a93c 3c46 3b3d
000000e0: 9924 03bd 5569 883c 6afb f0bc 4e83 053d
000000f0: efe5 00bd 125c 623d 1587 093d 9d3a 503d
00000100: c23f 443c 80ed 1bbd f8b0 9a3c b1f7 89bc
00000110: 83a0 9c3d bf05 cf3c c29a d8bc 7e59 88bd
00000120: ec2f 97bd f9ee b43d 4bb8 cb3d e4fe a53d
00000130: 16b4 27bd b81c 15bd 2926 dabc 6222 64bd
00000140: 608e 87bc 10d0 64ba 2afd 4b3d c068 26bc
00000150: 92c4 153d afc0 afbc 85b6 b53d 57e0 91bd
00000160: ca32 3d3d c33a 5cbd c5b9 b3bd 3c55 3abc
00000170: 2a7b 973c 6d7c 28bc 480a b73d 50be debb
00000180: cc21 18bd 4f2e 5fbc 5a98 a63c 9f3a 2cbd
00000190: b538 21bc a5a2 443c bdac 873c 1a16 aebc
000001a0: a86a 383d 01ba 6c3d b9e9 3fbd b401 c93c
000001b0: 47fc 1bbd f4bd 353d 03f9 873d e509 a53c
000001c0: a778 51bd a936 963c 4663 87bd 90bc 31bc
000001d0: 0b28 c7bc 752e 923d 5a32 babc 58d7 973d
000001e0: 45b0 5c3d 9e0e 4dbd 8117 803d 658d 7dbd
000001f0: 8bf8 5a3d 1461 46bb 87c3 793d d625 b33c
00000200: 23b4 e23c d655 c83d 4302 e5bc 7412 823d
00000210: 8eda e6bc 87ef 13bd 2055 72bc cf32 193b
00000220: 6659 4bbc 02f2 45bd d5f7 683d 88af 3c3c
00000230: 119d 32bc 2d14 91bc 0004 2a3d fbfa d93c
00000240: 9b3e 2a3d 0176 fabc fadc 00bb e65a f8bc
00000250: b53c ca3c 782b 683d 2f23 ea3d ce62 cb3b
00000260: 4daf 2f3d dfd8 823c 702b 3bbd 83f8 003c
00000270: 4a5f aa3c 2109 a5bc ea29 603c 3463 143d
00000280: de9f 763c 4f5f 873d 5d8d 363d 7fc5 d139
00000290: b9dd c73d 5cf8 063d a0d1 493d bd6b 8abd
000002a0: fa12 003d 031e 213d 73a0 79bd eeee 403b
000002b0: 4d9d 79bd f801 883c dee9 e6bc 51de 8ebb
000002c0: 5bf8 843b 78ad 533d 26e6 0dbd b049 b43d
000002d0: 7dbf 4c3d 3c88 07bd 9246 eb3c 656e 333b
000002e0: df8a dc3c e8bb 43bd 2ff7 6b3d 6265 26bd
000002f0: e5e3 d23c 8cee a03d 4664 47bc b16a 4cbd
00000300: c53b 373d b5a0 ea3c 258b a2bc 92bf 3d3a
00000310: ed1c 7ebd 4759 4d3d 4b93 62bc 2279 3a3d
00000320: 4699 b23c fda3 3a3d 7e96 913d 28cc 92bb
00000330: fc24 f2b9 6cde 763d 408d 033c 84e3 003d
00000340: fd60 6fba 063a 55bc bc66 93bd 40ad 173d
00000350: 9c81 84bc 67e5 53bc 909e 3c3c e317 a63c
00000360: 4e56 43bc 2485 5dbc f8ad 10bc acc5 a3bd
00000370: c4a3 353d 2f71 8abb 9a5b 243c 9b33 48bd
00000380: a2a4 e4bc 6d03 1b3d fe2c 3c3d d703 56bc
00000390: c2ab 8fbd 157a 673d 4100 c73b 5f76 e53b
000003a0: 902e 133d 86c3 89bb 01d8 993b 309a 933d
000003b0: b39e 04bd 0be4 8f3d 4614 213d c4e3 e1bc
000003c0: 8361 80bd f4e3 2abd e17b 563d 61a2 a53d
000003d0: 0490 2c3d e459 613c 4313 35ba 79f4 8fbd
000003e0: e192 7abd 812e 92b9 0254 153c f6a2 e53b
000003f0: cbdd fe3a fbc7 373d 8ad9 793b daa6 cbbc
0.032535166 -0.0004812624 -0.024457661 0.05539429 -0.014335792 -0.032329112 -0.031061621 -0.017330818
0.009731134 -0.0024887014 -0.028934697 0.014204198 -0.01966427 0.0049022357 -0.02708335 -0.03293014
-0.015371103 -0.030621488 0.066663645 0.036982182 -0.04434475 0.012630777 0.008479565 -0.013228865
-0.021929493 0.03512804 0.0061179074 0.050292473 -0.027439985 -0.03007249 -0.048622295 -0.019225378
-0.0005183824 0.0062652677 0.079922594 -0.0061338637 0.06048502 -0.019805104 -0.079638146 -0.014231434
0.037009865 0.0624714 0.030345272 -0.0340093 0.055660922 -0.008695376 0.009876725 0.01821697
0.11727533 -0.022268591 0.00488539 0.11708316 -0.029206717 0.01808325 0.020729562 0.045721278
-0.032017324 0.016651789 -0.029416759 0.032595925 -0.03146928 0.055263586 0.03357609 0.050837148
0.011978092 -0.038068295 0.018883213 -0.016841741 0.07647803 0.025271295 -0.026440982 -0.06657694
-0.07382187 0.08834643 0.099472605 0.08105257 -0.040943228 -0.03640434 -0.026629524 -0.055696853
-0.016547382 -0.00087285135 0.049801983 -0.01015681 0.036564417 -0.021454183 0.088727035 -0.071228676
0.046191014 -0.053766977 -0.08775667 -0.0113728605 0.018491346 -0.010283572 0.08937508 -0.0067975894
-0.037141606 -0.013621881 0.020336319 -0.042048093 -0.00984018 0.012001668 0.01656186 -0.021250773
0.04502359 0.057794575 -0.046853755 0.024536945 -0.038082387 0.044370607 0.06639292 0.02014632
-0.051140454 0.01833661 -0.06610732 -0.010848179 -0.024311086 0.07137767 -0.022729088 0.074141204
0.05387904 -0.05006277 0.06254483 -0.061902422 0.053459685 -0.0030270265 0.060977485 0.021868628
0.027673787 0.09781997 -0.02795518 0.06351176 -0.028180387 -0.036117103 -0.014790803 0.0023376232
-0.012411451 -0.0483265 0.056876976 0.011516459 -0.010901705 -0.017709816 0.04150772 0.026608935
0.04156361 -0.030573847 -0.0019662962 -0.030316781 0.02468715 0.05668208 0.11432492 0.006206847
0.04289179 0.015972553 -0.045695722 0.00787175 0.02079739 -0.020145955 0.013681868 0.03622742
0.015052764 0.066099755 0.04456841 0.00040010732 0.09759087 0.032951698 0.04927218 -0.06758831
0.031268097 0.039335262 -0.060944032 0.0029439288 -0.06094103 0.016602501 -0.028187688 -0.0043599983
0.0040579266 0.051679105 -0.034643315 0.08803117 0.049987305 -0.033088908 0.028720174 0.0027379033
0.026921688 -0.047786623 0.05760878 -0.04062403 0.025743434 0.07857999 -0.012169903 -0.049906436
0.044734735 0.028641084 -0.01984174 0.0007238324 -0.062039305 0.05013397 -0.013829063 0.045525678
0.021801602 0.045566548 0.07108782 -0.0044799037 -0.00046185392 0.06027071 0.008029282 0.031466976
-0.0009131579 -0.013014322 -0.071973294 0.03703046 -0.016175084 -0.012933112 0.011512414 0.020275062
-0.011922432 -0.013520513 -0.00883054 -0.07996687 0.044345632 -0.0042249183 0.010031605 -0.04887734
-0.027910534 0.037845064 0.045941345 -0.013062439 -0.07015182 0.05651291 0.0060730283 0.0070026363
0.035933077 -0.0042042164 0.004694939 0.07207143 -0.03237791 0.070259176 0.039325975 -0.027574427
-0.06268599 -0.0417213 0.052364234 0.08087612 0.04212953 0.013754342 -0.0006907472 -0.07029051
-0.06117523 -0.00027881938 0.009114267 0.007007952 0.0019444762 0.04486845 0.0038124048 -0.024859834

encoder.3.bias f4 [128]
00000000: 7ba9 7e3b 0c1e 1f3c 425b 523d b97c 093d
00000010: bf25 8e3d 50c2 853d df76 4f3c 1627 1cbc
00000020: c7ef 043d 8490 7b3d 07ca 423d ed6d 103d
00000030: 58ae ec3a 7263 c23d 61b8 7bbd 8288 953d
00000040: 8a1c e2bc dbd6 793d 87b7 6a3c 57a3 543c
00000050: 963d ea3b a413 7c3d 41a5 913d 39b4 80bb
00000060: 6ac0 ab3d 152c ea3c 40fc 6cbd 0103 22bc
00000070: 0a13 523d ccab 433c c24a ea3c 83fb 993d
00000080: 3fc8 9e3d 46a9 303d 0b75 083d f88e 123d
00000090: a763 043d 7582 6bbc 54d4 1c3d 5a7a 1e3c
000000a0: af78 a33d 21b3 b73c 6d92 25ba d1dc e43d
000000b0: bc40 8aba 42a2 ea3c 92ea 963d 1be8 5abd
000000c0: 4745 eaba 1f21 abbb 3346 1abd 1097 cc3b
000000d0: b2ca bcbc 7805 8fbb 2614 1a3d 6c0e 9c3c
000000e0: 146e 493c b60d 04bd 2ee1 343d eeee 193c
000000f0: 8898 693c 020b 0b3d 0e7c 983d 543a 2b3c
00000100: 63bd ab3d 9bfb 2c3d ab23 ed3d 9407 313d
00000110: 88a3 78bc 9ca4 953d c909 aa3d 0b74 073d
00000120: a63f 873d 3f52 fa3c 44ce 2f3d 4c17 9c3c
00000130: 8c8c 343d 4df7 d03d 2454 7e3d 64c4 9a3c
00000140: cd22 7d3d 0fe4 ca3d ec4a 603d 19fe 593c
00000150: a2d3 d5bc 3bdd 243d dd87 633d 2ba0 dd3c
00000160: ab67 f73c e3ea 893d 282b e03c 2168 043b
00000170: b8fe 703d a437 493d 756a 6f3c 099b cdba
00000180: bc6a 9e3d 5fcd 8c3c 3ef6 b53c 5d39 103c
00000190: 4d95 2f3d b951 93bc e540 713c 9e4d 033d
000001a0: 044b 91bc ac23 f7bc 2ef5 8e3c 3274 25bc
000001b0: 6a48 513c db89 2abd 5f6f 9f3d ee2f 25bb
000001c0: 814c e2bc 7f8f c0bc 4ef5 293d 3860 f63c
000001d0: 0ae3 9dbb 0744 b2bb 927f 123d f732 f2bb
000001e0: 54aa 9d3c fc94 913d b3f4 d63c 48ec 6dbd
000001f0: 024b 3dbd 4604 a73d 8e88 e93c 2b3b 363d
0.0038858342 0.009711754 0.05135656 0.03356621 0.06940793 0.06531203 0.012662618 -0.009530803
0.032455232 0.061417118 0.04755595 0.035261083 0.001805733 0.09491624 -0.061455134 0.073014274
-0.0276015 0.060995918 0.014325983 0.012978396 0.007148455 0.06154217 0.07111598 -0.003927734
0.083863094 0.028585473 -0.05785775 -0.0098884115 0.05128769 0.011942815 0.0286001 0.07518675
0.07753038 0.04313018 0.033314746 0.035780877 0.0323216 -0.014374365 0.03828843 0.009672726
0.07982003 0.022424283 -0.00063160696 0.1117493 -0.0010547857 0.028641824 0.073689595 -0.05344401
-0.001787343 -0.005222454 -0.037664603 0.006243594 -0.023045871 -0.0043646656 0.03761687 0.019049846
0.012294311 -0.03223964 0.04416006 0.009395344 0.014257558 0.033946045 0.074455366 0.010450918
0.08385732 0.042232137 0.11579069 0.043220118 -0.015175708 0.07306787 0.083026476 0.03306965
0.06603937 0.030556796 0.04292132 0.019054078 0.04407935 0.10203419 0.06209196 0.018892474
0.061800767 0.0990678 0.05475895 0.0133052105 -0.026101891 0.040250044 0.05554949 0.027053913
0.0302008 0.06734254 0.027364329 0.0020203667 0.05883667 0.04912533 0.014612784 -0.0015686463
0.07735202 0.017187772 0.022212144 0.008802739 0.042866994 -0.017983304 0.014724945 0.032056443
-0.017735966 -0.030168377 0.017450895 -0.010098504 0.0127736125 -0.041635375 0.07784914 -0.002520557
-0.02762437 -0.023505924 0.041493706 0.030075178 -0.004818325 -0.0054402384 0.03576619 -0.0073913294
0.019246258 0.07108495 0.026239729 -0.058086663 -0.04621411 0.08155112 0.028507497 0.04449002

encoder.6.weight f4 [32, 128]
00000000: 63da 8abd c1ab eaba 4283 0ebb ed26 22bd
00000010: bdaf ad3b fff3 03bd f337 b7bd 2ff3 e4bd
00000020: 5a6f b83d 67ad 15bd 1e03 b9bc 11fc 233e
00000030: e68a 8fbd 775a 01be f9e7 89bd c998 debd
00000040: ab43 8bbd fa16 763c f5e8 c03d be7e b73c
00000050: e9d7 8d3d 98b9 b4bc 5623 7c3c 27b9 0c3d
00000060: a333 313c e7eb e6bd 17a6 d5bd 6794 aebd
00000070: f0d2 84bd 1a1e c6bc dd1b 483d 79b3 9abd
00000080: 5e56 2c3d da5d a1bd 8c7a 6e3c 8c46 423e
00000090: 11f2 5dbc 372f 0a3d 544e 12bd 19de a0bd
000000a0: 5a99 623d 5fdc 203d 6c31 a23c f967 663d
000000b0: 2819 2c3d 60bc 163d ae07 e3bc 2248 fdbd
000000c0: 549e ae3c e3c2 e7bc 7eb2 073e 29cf 553e
000000d0: 28bd f2bd 6a06 6fbd ad01 453d 830a 1a3e
000000e0: 79f5 21be f501 d03d 4b15 19bd d375 babd
000000f0: 9c9f 9fbd e611 fbbc 79fb 31bd c557 883d
00000100: 887b ccbd 0820 a3bd 9e68 9a3c ece3 52bc
00000110: c559 ad3d 34e6 ef3d ee30 9c3d 0b8e 44bb
00000120: 7cad a93b 1fac a33d 7850 0d3d 1d79 cbba
00000130: f671 333c 971b ae3d 6128 93bd 6599 c1bc
00000140: 67f6 9abc 7d7e bf3d 5344 dfbd b02a 723d
00000150: 8a3c 6ebc f045 9bbd 7b28 95bb 24e2 9dbd
00000160: e25b f5bd 8a30 393d 34b2 003e 9d3c 5a3e
00000170: 89e2 ac3d aac0 9abd 11c9 99bb a3f1 3e3d
00000180: f392 a9bc 2430 aebb 0988 87bd 1c9b cb3d
00000190: ef6b aebd 072b d0bd 27c9 04bd 7f08 cd3b
000001a0: 9d95 34bd efa7 70bd 0d93 d83d 407b 263e
000001b0: b4f8 2f3d 8440 8d3c b1d4 023c 2590 79bc
000001c0: df78 8b3d 433b 13be 5041 27bd 0eae 873c
000001d0: d971 6cbd 1adc 183d fe17 953d fd02 dfbd
000001e0: eb62 7dbd 8991 e1bd 6cba b43d 2c84 a8bd
000001f0: 1b3a c23d a3a0 a23d 206e 81bd 8179 5f3e
00000200: 0175 e7bc e78d aa3c 9bb0 19bd 4c4a 333e
00000210: 7607 243e be69 54bd 9f7d ac3d 6e04 19bd
00000220: 2dc2 5dbd 245b 9d3d 0b48 6f3d 56c9 edbd
00000230: a176 2d3d ddec 853d aa6d 3d3d 4b0d a3bd
00000240: 2403 8b3c 2cea 4b3d 533a c83d 615f dcbc
00000250: bf4d 2abd f67f 8d3d dadd 27be fd99 093e
00000260: fc0f 5b3d 5b3d 62bd 0e3a 29bd 865a 003d
00000270: 8461 bb3c 916e c83d db53 ff3c 86fe b53d
00000280: d2a7 da3d 17f0 f93c 443d bb3b e219 813d
00000290: cf92 d4bd 1ac6 173e 3b9f f9bd 9e1f 2abe
000002a0: 1f8a 923d fac1 e43c d67b 18bd 5464 95bc
000002b0: d48d 0fbe 5c67 9ebd 06ba f6bc 4b70 c53d
000002c0: 0589 ae3d a1d1 03be b571 2f3d cc84 31be
000002d0: 673f 163d e8a7 5fbd 1a72 713d 676c d5bd
000002e0: cfca a43d 7b6f 02be 55bc 2c3a fe8a 13be
000002f0: 3c1f 1b3e e467 bb3d 90aa cbbc b8f8 063c
00000300: d895 d9bd ad07 263d 7081 423d 1b5e 893d
00000310: 1ccd ad3c f911 bd3d 773b 95bc 3096 80bd
00000320: 1cb6 8fbd 43ce 693d 495f 5cbe 8c57 c13c
00000330: 36de fb3d 234c e1bd c924 103d 5274 83bc
00000340: 2082 ef3c 2493 e3bd 213d a3bc ff9c 01be
00000350: 749b 9e3d 5d88 f2bc b87f 8ebb 76eb 10bb
00000360: 8e47 863d a324 46be 9fe6 6b3d 7943 133d
00000370: 1131 40bd d647 15be 9bf9 c83c a45c 023e
00000380: 7980 0d3e 2d7c 113e cbb5 1cbd 67e2 c7bc
00000390: 52ab b3bd 40ad febd 95da d8bd 25e1 533d
000003a0: daa6 c43d 0665 ab3b 6753 6dbd afbd 03be
000003b0: 4a0b b8bd c2a4 0abd 18c2 f93c 82e5 0f3d
000003c0: e871 8dbd daeb 98bc 3b43 0cbd eeba 19be
000003d0: 36fa 673d fb46 82bd 398c 4c3d 541f 123e
000003e0: a514 873d 43d7 603a cde6 00be d173 a7bd
000003f0: a37a e4bd d075 1bbc 69e7 1d3e f19f dfbd
-0.06779935 -0.001790397 -0.0021745716 -0.039587904 0.0053004907 -0.032215115 -0.08946218 -0.11179196
0.090056136 -0.036542322 -0.022584494 0.16014124 -0.07008915 -0.12632166 -0.067336984 -0.10868985
-0.06800016 0.0150201265 0.09419433 0.022399303 0.06925947 -0.022061154 0.015389284 0.034356263
0.010815534 -0.112754636 -0.1043207 -0.08524399 -0.06485546 -0.024184275 0.048854697 -0.07553763
0.042074554 -0.07879229 0.014555585 0.18972224 -0.013546483 0.033736434 -0.03571923 -0.07854862
0.05532203 0.039272662 0.019798957 0.0562515 0.04201618 0.036800742 -0.027713623 -0.12367274
0.021315731 -0.028291171 0.13251683 0.20879807 -0.11852485 -0.058355726 0.0480973 0.15043072
-0.15816297 0.10156623 -0.037373822 -0.091045044 -0.07794115 -0.030648183 -0.043452714 0.06657366
-0.09984499 -0.07965094 0.018848713 -0.012871724 0.08464388 0.1171383 0.0762652 -0.002999189
0.0051781517 0.07991814 0.03450057 -0.0015523765 0.010952463 0.08501356 -0.07185436 -0.023632715
-0.018916322 0.093502976 -0.10901704 0.05912274 -0.014540801 -0.07581699 -0.004551945 -0.077091485
-0.11980416 0.045212306 0.12567979 0.21312185 0.08441646 -0.07556279 -0.0046931584 0.04661716
-0.020699954 -0.0053157974 -0.066177435 0.09941694 -0.085166804 -0.10164457 -0.032418396 0.0062571163
-0.044087995 -0.058753904 0.10574923 0.16257954 0.04296179 0.017242678 0.00798528 -0.015232121
0.06810164 -0.14378075 -0.04083377 0.016562488 -0.05772576 0.03731928 0.07279967 -0.10889242
-0.061861914 -0.11014087 0.0882462 -0.08228335 0.09483739 0.07940795 -0.06319833 0.21823694
-0.028254034 0.020819617 -0.03752194 0.17508811 0.16018471 -0.051858656 0.08422398 -0.03735774
-0.05414026 0.07683399 0.058418315 -0.116106674 0.04234946 0.06539319 0.046247162 -0.0796152
0.016969271 0.04978387 0.097767495 -0.026900949 -0.04157805 0.06909172 -0.16393223 0.13437648
0.05348204 -0.055234294 -0.04131513 0.03133633 0.022873648 0.09786714 0.031167915 0.08886437
0.106765404 0.030509992 0.0057140905 0.06303765 -0.10379564 0.14821663 -0.12188574 -0.16613623
0.07155251 0.027924526 -0.037227474 -0.018236317 -0.14018947 -0.07734558 -0.030118 0.09640559
0.08522228 -0.12872936 0.04283305 -0.17335814 0.03668156 -0.054603487 0.058946706 -0.10421067
0.08046495 -0.12737839 0.0006589343 -0.1440849 0.15148634 0.09150675 -0.024861604 0.00823801
-0.106242836 0.040534664 0.047486722 0.06707402 0.021215968 0.09231944 -0.018216832 -0.06278646
-0.070171565 0.057081472 -0.21520723 0.023601316 0.12298243 -0.1100085 0.03519133 -0.016046677
0.029236853 -0.11112049 -0.01992661 -0.12657546 0.07744494 -0.029606039 -0.0043487214 -0.0022113002
0.06556617 -0.19349913 0.057592984 0.03595302 -0.046921793 -0.14578184 0.024533084 0.12730652
0.1381854 0.14207526 -0.03825931 -0.02439995 -0.08772911 -0.124353886 -0.10588566 0.051728386
0.09602137 0.005230549 -0.057940867 -0.12865327 -0.08986528 -0.03384853 0.030488059 0.035130985
-0.069064915 -0.01866715 -0.034243803 -0.15012714 0.056635104 -0.06361195 0.049938414 0.14269763
0.065957345 0.00085769984 -0.12588044 -0.08176387 -0.111562036 -0.009488538 0.15420307 -0.10919178

encoder.6.bias f4 [32]
00000000: 131a fa3d 0cc2 d3bb 12b2 05be cde2 c8bd
00000010: b3a9 b1be fa2a 42be 455d 103e 2ca8 bbbe
00000020: eb94 303e 9f3c 0ebe a825 2dbe 421a e33c
00000030: c9fd 013d 76da 0cbd 4b1e 34be 7bda 153c
00000040: 80f5 edbd 8e25 c93d 48fa 2cbe 1ecf 233e
00000050: 5ece b1ba ab5e 8abd 7a8e b93d 8045 eb3d
00000060: fcb7 6ebd d341 a5be 3dbc 213d c141 53bd
00000070: dcf3 8bbe c599 36be 9935 093d b03e 823d
0.122120045 -0.006462341 -0.1305621 -0.09808884 -0.34699783 -0.18961707 0.1409808 -0.36651742
0.17244308 -0.13890313 -0.16908896 0.027722482 0.03173617 -0.034388028 -0.17589681 0.009146328
-0.11619091 0.09821616 -0.1689235 0.15996978 -0.001356553 -0.06756338 0.090603784 0.114878654
-0.05828093 -0.32276782 0.03948616 -0.05157638 -0.27334487 -0.17832096 0.03349838 0.06359613

decoder.0.weight f4 [128, 32]
00000000: 365a d13d 0df7 043e 152f 32bd 0817 67be
00000010: 98ba 513d b10d 9a3d bcfd 1cbe df24 5f3d
00000020: 9815 e53d ef55 31be 61d3 e1bd 79e7 1ebc
00000030: ff05 8c3d b39d 043e 8308 a5bd 8caa 24be
00000040: 330f 0e3e c94c 34bd 1883 f83c 128e 17be
00000050: 9f98 b1bd c6ff 99bd 4e5d 1ebe d9ba 433d
00000060: 0ce4 1dbe bfe4 a53d c593 bd3d 0ed0 d93b
00000070: b145 d03d ee4f 6fbe a427 e7bd 034c cebd
00000080: 3bb2 343e 0a7e a73d 9274 90bd 30c1 6e3c
00000090: e28b 2ebe a8d0 da3d 2196 a5bd 29d0 0bbb
000000a0: 1e9c 4a3e c7d6 df3a 52d4 cbbd e5d6 54bc
000000b0: f9e9 453e db2f 0f3e fe54 a9bd cb97 d53d
000000c0: 0010 a1bd 63bd c43d 8656 0c3d 3694 ca3d
000000d0: ed33 ffbd e13b a0bd 2968 ca3d 1234 293e
000000e0: 7a47 bb3c b95d 96bd 966b de3d fe0b c63d
000000f0: 7d34 30be e223 023e a96d edbd 25f8 2b3e
00000100: 2f8b ffbd cd8a e8bd a11a b339 fbea 7b3e
00000110: 472f 31be da7e cbbd 02ea 2d3e f811 db3b
00000120: 84e0 363e 0290 03be 3b79 0abd 57bd 213d
00000130: ff4f ebbb 1ae5 8e3c e3fa 86bc 3e46 5a3d
00000140: e00d 1dbe 3a14 79be b367 63be bbfa 493e
00000150: d1b7 6a3d 5e6e 3f3e 07c5 473d e941 983d
00000160: 0e74 313e 1285 e93c 98a2 babd 7f2b 17be
00000170: 63d2 413d 2316 133e f165 c6bd 18d3 513e
00000180: e83b 983d e293 2e3e 62d5 c83d 74d2 793d
00000190: 86ff 59be a3db 903c 068e 6d3d 9735 23be
000001a0: 7467 123e 3c2b 0bbd 098d b33d 312f e13c
000001b0: 4ab0 20bd 6be8 273e 9fb0 09bd 1329 9abd
000001c0: 702f fa3d dd57 6e3d 559e 5e3d 0c14 443d
000001d0: 02c4 0e3d 7952 263e db01 eebd 358e 3dbd
000001e0: ff8d 47bd 0546 123e d4b5 da3d 2261 43bd
000001f0: 5e9f 1cbd 8290 1bbe de39 b63c 578e 86bd
00000200: 5e58 8abd 328e edbd 9ad5 b23d 1e71 02bd
00000210: 7669 4b3e c6a6 343d 6e00 d8bd fa0a 84bd
00000220: f2a6 a93d 76e1 3abd 4719 273e d38c 213b
00000230: 5bf8 e339 6c7c e93d 6497 96bd cbe6 c23d
00000240: b122 26bd 6913 56be 6482 93bd 7438 0f3e
00000250: 7089 f13d 1acf 5e3d b538 873d 775c 733d
00000260: b11b b13d cbf7 46be 6da2 40be be1b 22be
00000270: 6f8f 84bd a2b9 3a3d 771a 77bd 84ef febd
00000280: 95f7 27be 2bd4 78bb ffb8 25bd dc8f 993d
00000290: be01 dc3d 6942 91bd 2264 973d e54b 31be
000002a0: b62c 0bbd ede5 093d 67a4 1c3e fa8f aabd
000002b0: 9b4e c3bc e119 07be ae3c 0fbe 8e7b 6dbd
000002c0: 42a4 adbc c127 30be d9d1 abbc 9825 8a3d
000002d0: 0dc3 acbb 9f42 283e ebb7 ef3b 8d21 a1bd
000002e0: d576 09be c1ea fd3d 7a99 913c e088 3ebe
000002f0: 2ed7 013d 7012 6fbd 73e4 183e 2c65 313e
00000300: b22c 92bd 303b afbd c87c 28bd ac02 2e3e
00000310: 4379 a23d 9703 d63c 310e 663d 2748 1a3d
00000320: fe62 03be 50e2 0e3c cf27 af3d 2ffa 883d
00000330: 8238 bd3d d2dc d1bd 1163 e9bb e314 43be
00000340: cccd 4d3c 0acd 0abd 3b0d 483d c827 59bd
00000350: 2eef d1bd 087b 27be ccb5 df3d 2d0e 23be
00000360: f638 11bd 0f73 e8bd a10a 90bd e036 373d
00000370: ca5f 14be c1f9 6a3d 5468 86bc 64e9 2bbd
00000380: 5cef 1bbe d5e7 803e 5356 35be 7a75 58be
00000390: a018 4dbe ee4a 3bbe 7b3f acbd 8060 babd
000003a0: 1275 54be 9d91 49be 2401 f2bd 6976 0bbe
000003b0: ae1d f1bd 33fd 16be 6e67 c8bc 4257 823c
000003c0: dab7 21be d058 8f3d 63bd 3c3d 51bc 813d
000003d0: 3c26 c2bd 02f1 c23d b505 1abe ef00 d3bd
000003e0: 30bf f33d 2266 87bd 9419 acbd 406e 35be
000003f0: 63fa 5d3d 4038 3bbe 1ca6 31be 6e1a 953d
0.102222845 0.12984867 -0.043501932 -0.2256738 0.05120334 0.07522143 -0.15331167 0.054478522
0.11185759 -0.17317937 -0.110266455 -0.009698742 0.06837081 0.12950782 -0.08058264 -0.16080683
0.13872986 -0.04401854 0.030335948 -0.1480029 -0.08671688 -0.07519488 -0.1546528 0.047785614
-0.15419024 0.081002705 0.092567004 0.0066471165 0.101695426 -0.23370335 -0.11286858 -0.10073092
0.17646115 0.08178337 -0.07053484 0.014572427 -0.17045549 0.10684329 -0.080852754 -0.002133379
0.19786116 0.0017077558 -0.09952606 -0.012990688 0.19327535 0.13983099 -0.08268164 0.10429343
-0.0786438 0.09606435 0.034262203 0.0989155 -0.12461076 -0.07823921 0.09883148 0.1652377
0.022861231 -0.07342095 0.10860364 0.09670256 -0.17207523 0.12709 -0.11593182 0.16793878
-0.12477719 -0.11354599 0.0003416138 0.24601357 -0.17303191 -0.099363044 0.16983798 0.0066854917
0.17859083 -0.12847903 -0.03380702 0.03948721 -0.007181167 0.017443229 -0.016477054 0.053289644
-0.15337324 -0.24324122 -0.22207527 0.19724552 0.057304207 0.18694445 0.048771884 0.07434446
0.17329428 0.028505836 -0.091130435 -0.14762686 0.04731978 0.14363913 -0.096874125 0.20490682
0.07433301 0.170486 0.098063245 0.06099172 -0.2128888 0.017682856 0.057996772 -0.15938412
0.14297277 -0.03397678 0.08767135 0.027488323 -0.039230622 0.16397254 -0.033615705 -0.075273655
0.12216079 0.05818926 0.054350216 0.04787068 0.034854896 0.16242398 -0.11621448 -0.046278197
-0.048719402 0.14284523 0.10679212 -0.047700055 -0.038237922 -0.15191844 0.02224439 -0.06570118
-0.06755136 -0.11599387 0.087321475 -0.03184616 0.19864449 0.04410436 -0.10546957 -0.06447406
0.082837954 -0.045625173 0.16318236 0.0024650588 0.00043481853 0.11400685 -0.07353094 0.095166765
-0.040560428 -0.20905842 -0.072026044 0.13986379 0.11793792 0.054396726 0.06602613 0.059414353
0.0864786 -0.19430463 -0.1881196 -0.15830895 -0.0647267 0.04558719 -0.060327973 -0.12448028
-0.16403039 -0.003796826 -0.04045963 0.07498142 0.1074252 -0.07092745 0.07392146 -0.17314108
-0.033978187 0.03366654 0.1529709 -0.083282426 -0.023841193 -0.13193466 -0.13987991 -0.05797916
-0.021196488 -0.17202665 -0.020974087 0.06745452 -0.0052722753 0.16431664 0.007315626 -0.078677274
-0.13424237 0.123982914 0.017773379 -0.18606901 0.031699352 -0.058367193 0.14930896 0.1732375
-0.07137431 -0.08556211 -0.041134626 0.16993207 0.07933285 0.026124759 0.056165878 0.037666466
-0.12830731 0.008720949 0.08552515 0.06688344 0.09239294 -0.10247196 -0.0071224053 -0.19050936
0.012561273 -0.033886947 0.048840743 -0.053016454 -0.10250698 -0.16355526 0.10923347 -0.15923376
-0.035454713 -0.11350071 -0.07033277 0.044730067 -0.14489666 0.05736709 -0.01640717 -0.041970626
-0.15228027 0.25176874 -0.17708711 -0.21138564 -0.20028925 -0.18290302 -0.084105454 -0.09100437
-0.20747784 -0.19684453 -0.11816624 -0.13619389 -0.11773239 -0.14745025 -0.024463382 0.015910748
-0.1579279 0.069993615 0.04607905 0.06334747 -0.09479949 0.09518625 -0.1504124 -0.103029124
0.119017005 -0.06611277 -0.08403316 -0.17717838 0.054193866 -0.18283176 -0.17348522 0.07280432

decoder.0.bias f4 [128]
00000000: c7f6 853c 29a5 703e a7e4 a33d 79fc d9bb
00000010: 2dc8 603d 7346 8c3d 4c25 693e 8d74 03bd
00000020: 8399 323d 50ee fc3d eac8 993d 9368 013e
00000030: 3e75 343e d33c 83bc 81a6 abbd 7d5d 88bd
00000040: f3a8 cebd 93fd 0fbd 5761 a53d 8ac5 e43d
00000050: ccd6 b33d c155 543d b12b 35be c9ff 283d
00000060: 2212 fa39 86b0 f2bd 2cd2 86bd c018 1bbd
00000070: 1802 ce3d 04b2 083d 816b 123e 3e7b 00bd
00000080: efa5 983d 709e 0f3d 1411 ab3d 9084 723e
00000090: 6e38 f3bd 0657 3b3e 48b1 6f3d 834f 923d
000000a0: b9aa b4bd 2674 93bd c917 913d f2aa 993e
000000b0: cf74 d73d ef2b a43c a34c 4c3e e67b 99bd
000000c0: 2cb8 503d 3993 c53d 1d1b 8c3d 6a86 533e
000000d0: be9d 33be ad5d 21bd 7161 733e 40ef 70be
000000e0: 1b0e c23d b574 353d b2d5 d3bd 093c b53d
000000f0: 6377 573d a0f8 863d 96f3 8c3d 84d6 c5bd
00000100: a5cf 8c3d dc45 17be cf32 13be 5853 973e
00000110: d7dc 84bd f7cd 5c3e dfa4 1b3e 01b4 88bd
00000120: 1ebb d2bd afa1 d03d 1566 66bc 02f6 81be
00000130: af40 043e 2731 993c 1742 8f3d 5fb2 39be
00000140: 0efb 493e 46b1 133d 0d3a 1c3e 146b 5bbe
00000150: c536 b93c a6d5 283e d5db 7c3e 41c8 49bd
00000160: c612 1b3e 1e3b 913e 47ba acbc c35d 433d
00000170: 5a89 353e d3bc 6cbb 1e54 7c3c b5da 813d
00000180: 7f75 1b3e bd33 e63d c472 e13d 2fee ae3d
00000190: 46d9 07be 2cf5 323e 0c29 733d f787 fd3d
000001a0: 6c68 453e 7930 453c 3d33 e83d dd36 e2bd
000001b0: 9eea 823e b1f7 a83d 6970 5a3d 923a c2bd
000001c0: 73e5 abbc 3c5b dc3d 04b1 713e 4374 4d3e
000001d0: 2019 c53e d331 403e 3bc4 8f3d 41d3 2dbe
000001e0: 61ee 70be 2880 9c3d 907f ae3d 8a10 473d
000001f0: 70a8 c1bd 5021 27be d911 513d 46fa 083e
0.016353024 0.23500504 0.08002596 -0.0066524115 0.054878403 0.068493746 0.22768134 -0.032093573
0.04360343 0.12350142 0.075090244 0.12637548 0.1762285 -0.016020214 -0.083813675 -0.066584565
-0.10090818 -0.035153937 0.08075207 0.1117049 0.08781204 0.051839594 -0.17692448 0.04125956
0.00047697226 -0.118500754 -0.06583056 -0.0378654 0.10058993 0.033372894 0.14298822 -0.031367533
0.07453524 0.035063207 0.08352867 0.23683381 -0.118759975 0.18294916 0.058518678 0.07144072
-0.08821625 -0.07199888 0.07084615 0.30013233 0.10520326 0.02004048 0.1995111 -0.07494335
0.05095689 0.09647221 0.06841109 0.20656744 -0.17540643 -0.039395977 0.2376764 -0.23528767
0.09475347 0.044300754 -0.103434935 0.088493414 0.05260409 0.0659039 0.06882398 -0.09660056
0.068755426 -0.14772743 -0.1437485 0.29555774 -0.06487434 0.21562944 0.15199612 -0.06674958
-0.10289596 0.10187089 -0.014062424 -0.25383002 0.129153 0.018700195 0.069950275 -0.1813445
0.19724676 0.036057733 0.1525652 -0.21427566 0.022609124 0.1648775 0.24693234 -0.049263243
0.1514388 0.28365415 -0.021084918 0.04769684 0.17728177 -0.003612329 0.0154009145 0.06340543
0.1518154 0.11240337 0.11008218 0.08541524 -0.13266477 0.17476338 0.059365317 0.12379449
0.19278115 0.012035483 0.11337898 -0.110456206 0.25569624 0.082503684 0.05332986 -0.09483828
-0.020983433 0.10759589 0.23602682 0.20063882 0.3849573 0.18769006 0.0701985 -0.16975118
-0.23528434 0.07641631 0.08520424 0.048599757 -0.09455955 -0.16321301 0.05104241 0.13376722

decoder.3.weight f4 [256, 128]
00000000: 5c72 b2bc 83f3 33bd d3a0 763c 0d69 9e3c
00000010: 9799 333c 841b 22bd 2f42 863d 5743 0b3d
00000020: d829 3cbc aa51 833d b017 abbc e598 423d
00000030: b38f 00bc 15fd 02bc 8894 e03c ce8a af3c
00000040: 38ec 533b 9d29 82bd e44c 91bd 79e9 80bd
00000050: 015a 6c3c d89f 843c 939f 60bd 1e97 263d
00000060: 55c1 65bd 092e 023d 8446 103b 08fd 463d
00000070: 451c b53c 6681 133d 589b 9f3c 4174 3b3d
00000080: bf33 653d 7aac 04be a844 b33b de6f 1ebc
00000090: 843e 36bd 4a45 db3c 6c7b 03be db85 c1bd
000000a0: d60c febc 33bd a93c d5e6 a83d 5346 32bd
000000b0: 7b14 9c3c 041f 883d 4197 86bd e524 e43b
000000c0: 2289 cebb 6e5a a73d a8de 1c3c 376f 653c
000000d0: 16a0 a33d e837 01bc aa0e 97bc bb89 90bc
000000e0: 41fb e9bc 9f84 b6bb d662 7cbd 6ecc 18bd
000000f0: 0f31 dd3c fe0f 6fbd 09f6 d53c 829b a13d
00000100: 10b8 063d 050b d2bc 9674 1e3c 34c9 413b
00000110: fe77 bdbc 2e93 07bd 24d4 f73c 72d6 823b
00000120: 47f0 c13c a5e1 81bd deba 443c a97c ed3c
00000130: a6a3 153d 8c54 35bc 46dd 3b3d 2d8d 6dbd
00000140: c729 23bd 1a19 003c 86c0 ba3b 29cc bfbb
00000150: 9a58 a5bc 6cc6 efbd 4723 00be 756e 1ebc
00000160: 2bec 03bd 802b ab3c f2e8 e4bb 369d e9bc
00000170: 3dc2 5b3d 8040 71bd 0407 383d 9a5c 963c
00000180: e5d1 873b 70df 933d 2584 513d 09f0 b23d
00000190: 4034 733d a9de 043d 7577 6abc 2dd9 51bd
000001a0: 08a7 393d 6a2e 6ebb 0b15 3bbc ad1f 81bd
000001b0: d8b9 10be e37f 92bd 4a0b 19bd f403 b03c
000001c0: d4e8 383b a57a 503d 80a7 96bd f86e f73c
000001d0: 92fb c4bd 7156 ddbb c2ef 86bc 755f 8d3c
000001e0: f198 bb3a 55cc 4d3a a30e 263d 0e70 353d
000001f0: a92c 29bd d8ae df3c b8a3 c5bd c96a a03d
00000200: 775e d43c b232 80bd 6336 083d 172f 953c
00000210: 420c 023c c207 37bc fe7e 1f3c 1b06 47bd
00000220: ea48 8dbc b971 c03c dbd7 70bd 417d e83c
00000230: 6407 72bb ba38 1bbc 5f45 ecbc 71d8 dcbc
00000240: 3f67 6cbc 91f7 d8bb 6c90 c63c 592b b03c
00000250: 9870 c33c 5979 efbc a4ec 97bd 296d 11bd
00000260: e190 1a3d 163a a8bc 9421 873c 9bb7 883c
00000270: 607e 323d 203e 2bbd f6f5 eabc 1cb3 0ebd
00000280: 39a4 b23c 8207 d13c c7ca 9c3c 871d 42bd
00000290: 70f9 3f3d 7f0f ee3a 0942 783d 62e5 83bb
000002a0: 2849 a5bd 3a6d f4bc 5794 62bd d58c 5f3c
000002b0: 4d58 d93b a970 1abd 7198 583d 0b99 19bd
000002c0: 84e8 61bd f154 94bd c454 033b 56ec e53c
000002d0: 595a e33c 5f6a b4bc 7389 eebb e806 fa3c
000002e0: d986 973b 8506 0b3c 40cb 913b 28aa 863c
000002f0: 7c08 61bd 6ff1 92bd 7642 0dbd 528a e5bc
00000300: fb6e e7bc 8e39 b53b c681 933c 41c2 063d
00000310: 28c6 28bc fde5 033d bad8 4abc 213b 053d
00000320: 5975 e33b 16d3 143d cb51 0d3c 8544 f13c
00000330: 055b 24bd 5de9 0a3c 7d6a bcbc ce70 7b3d
00000340: dc0e 54bd d248 49bb bb59 89bd 469e 603c
00000350: 671b 27bc 58f1 323d 2863 213d aa75 92bd
00000360: 5550 a3bc 65e9 36bc c9f2 cc3c 59db 33bd
00000370: 8ef3 38bd a3c4 86bc 8e59 41bc 0f78 91bd
00000380: f661 dbba 80d8 cdbc 74a8 3c3d a4b8 9bbb
00000390: 38a9 0f3d 77b2 83bd 96c9 e53b 2ef2 153d
000003a0: 11d1 bdbb 72f7 c9bc ae51 013d 3d08 7a3c
000003b0: e0ce c33c 9f4d f1bb d05e 503b a3bb 5ebc
000003c0: 17a5 323d 8e65 59bc 4167 a3bc 614b 29bd
000003d0: 510f 35bd 615b 4a3d a3be 9eba 554c 293d
000003e0: 3b7d 52bd 54fb f6bc d889 69bd 6973 f83c
000003f0: 7861 a03c 1e2f 653c f21b 3f3d 6932 6a3b
-0.021783046 -0.043933403 0.015052992 0.019337201 0.010961912 -0.039577022 0.06555592 0.033999767
-0.011484586 0.064120606 -0.020885319 0.047509093 -0.007846761 -0.00799491 0.027414575 0.021428492
0.0032336842 -0.06355593 -0.07094744 -0.062945314 0.0144257555 0.0161895 -0.05483968 0.04067146
-0.05609258 0.031782184 0.0022014687 0.048581153 0.022108207 0.036012076 0.019483253 0.045765165
0.055957552 -0.1295642 0.005470831 -0.009670226 -0.044493213 0.026766438 -0.1284005 -0.09449359
-0.03101198 0.0207201 0.08247153 -0.043524098 0.019052735 0.06646541 -0.06571818 0.006962406
-0.0063029686 0.08171545 0.00957457 0.0140035665 0.07989518 -0.007886864 -0.01843961 -0.0176438
-0.02856219 -0.005570009 -0.061617695 -0.037304334 0.027000932 -0.05836486 0.026118295 0.07890989
0.03289038 -0.02564002 0.009671351 0.002956939 -0.023128506 -0.033099346 0.030252524 0.003992849
0.023674143 -0.063418664 0.012007443 0.028990107 0.03653302 -0.011067521 0.04586532 -0.057995964
-0.039834764 0.007818485 0.00569922 -0.005853195 -0.02018385 -0.11707768 -0.12513457 -0.00966989
-0.03220765 0.020894766 -0.006985777 -0.028517347 0.053652037 -0.058899403 0.044928566 0.018354703
0.0041448944 0.07220352 0.051151413 0.08737189 0.059376 0.032438908 -0.014310707 -0.051232506
0.04532531 -0.0036343583 -0.011418591 -0.0630487 -0.14133394 -0.07153299 -0.03736428 0.02148626
0.0028214948 0.050898213 -0.07356167 0.030204281 -0.09618296 -0.0067546894 -0.016471747 0.017257432
0.0014312548 0.0007850577 0.040541302 0.044296317 -0.041302357 0.027305052 -0.096503675 0.07832868
0.02592395 -0.06259669 0.033254992 0.01821093 0.007937493 -0.011171283 0.009734867 -0.048589807
-0.017246682 0.023491727 -0.058799606 0.028380038 -0.0036930675 -0.009473974 -0.028841672 -0.026958676
-0.014428913 -0.006621309 0.024238788 0.021505045 0.0238574 -0.029232668 -0.074181825 -0.035504494
0.037735824 -0.02053551 0.016495503 0.016689112 0.04357755 -0.041807294 -0.028681736 -0.03483878
0.021806823 0.025516275 0.01913966 -0.04739144 0.04686874 0.0018162577 0.06060985 -0.0040251473
-0.08070594 -0.02983724 -0.05531725 0.013644417 0.0066328407 -0.037705097 0.052879754 -0.03749947
-0.055153385 -0.07242764 0.0020039538 0.028066795 0.027753042 -0.022023378 -0.007279569 0.030520871
0.0046242294 0.008485441 0.004449278 0.016438559 -0.054939732 -0.07174956 -0.03448721 -0.028020058
-0.028251162 0.0055305427 0.018006217 0.0329001 -0.01030115 0.032201756 -0.012380773 0.032527093
0.006941479 0.03633412 0.008625458 0.029451618 -0.040125865 0.00847849 -0.022999996 0.061386876
-0.051771984 -0.003071357 -0.06706568 0.01370961 -0.010199404 0.043687195 0.039401203 -0.07151349
-0.019935766 -0.011164044 0.025018113 -0.043910358 -0.045154147 -0.016451186 -0.011801137 -0.071029775
-0.0016737569 -0.02512765 0.046059087 -0.0047522355 0.03507349 -0.06430524 0.0070125563 0.036607914
-0.005792745 -0.024654124 0.031572036 0.015260753 0.023902357 -0.0073639895 0.0031794794 -0.013594541
0.043614473 -0.013268841 -0.019946696 -0.041331653 -0.04420406 0.049403552 -0.0012111258 0.04133256
-0.05138896 -0.03014914 -0.057016224 0.03032847 0.019577727 0.013988284 0.04665751 0.0035735613
